rpbench/articulated/pr2/pr2_reachability_map/pretrained/best_model_larm.pth (torch, 25312 bytes, 7 tensors)

fc1.weight f4 [50, 7]
-0.49853164 -0.34881517 -0.40796608 0.40498745 0.8637599 -0.054179806 -0.26695007 -0.14138524
0.07118079 0.13929437 0.5602269 -0.37277937 -0.0815366 -0.79571503 0.22353774 0.043579638
0.38316837 0.44468987 0.4871776 0.6471111 0.260848 0.28964064 -0.24903436 0.031035084
0.4188474 -0.13360085 0.4569076 -0.842089 0.6529075 0.5566844 0.99125916 0.13252403
-0.29667106 0.42227182 0.26870888 -0.9827948 -0.6811221 -1.1548778 -0.32034183 0.2203846
-0.49745902 -0.38541967 -1.2158419 -0.48556814 0.31183565 0.078713246 -0.19171526 -0.18975991
-0.55823827 0.3064166 -0.024223797 0.109769136 -0.47736987 -0.18999909 -0.26887542 1.0621265
-0.13160525 0.040334497 0.16153549 -0.7173533 0.38259766 -0.5867599 0.3535985 0.5386748
0.8586588 0.9615773 -0.0062125283 -0.0050428626 -0.7346665 -0.23063128 0.4433466 -0.7985571
0.95896006 0.39675856 -0.50598127 -0.04667779 0.20337433 -0.9262565 -0.15062995 0.5745341
0.48811975 0.46900827 -0.36227873 0.23137312 -0.7658471 0.010054159 0.5248838 0.17941654
-0.32946578 -0.3789025 -0.4239562 0.9594498 -0.30776504 -1.019479 0.1288886 -0.3762119
-0.2245607 -0.27039602 0.57527626 0.31261244 0.9973233 0.2092426 0.44290233 0.15819508
-0.35086122 -0.8749904 -0.76397353 -0.19947048 -0.324956 -0.6569632 0.42614692 0.5462009
0.46806738 -0.26563317 0.18263364 -0.37134516 0.66594964 -0.5456562 -0.20343618 -0.23187585
0.7378677 0.9885452 -0.42760983 0.27724972 0.442736 -0.29382637 0.14130716 0.11373507
0.13839296 -0.79398036 -0.31329194 0.47039706 0.25893876 -1.6245177 1.5532686 0.14992124
-0.035355646 0.01145075 -0.16248794 0.063937776 0.90276784 -0.8034022 -0.49864325 0.01603659
0.25668725 -0.49974954 0.24372676 1.0046155 0.71386516 -0.87743783 -0.25788388 0.42238945
0.4882727 0.061286937 1.1882857 -1.0030812 -0.3723846 0.14482263 -0.22116059 -0.008398624
-0.25377935 0.0073644416 1.1936496 -0.5385677 -0.0039580897 -0.38578492 0.7406264 -0.17981875
0.046905078 0.029031744 0.3339151 -0.44599 -0.64383936 -0.37433913 -0.2776495 -0.80729526
-0.35268387 0.81228775 -0.13453752 -0.042348657 0.53744835 0.0729484 0.11308259 -0.16764158
-0.015800275 0.036090355 -0.70287806 -0.583377 0.31845707 0.6054235 0.90327895 -0.60571444
0.173419 0.5197361 -0.22411756 0.31155804 0.08436567 -0.4498428 0.9503197 -0.17979929
-0.057119597 -0.51353943 0.10074608 0.21532618 -0.9956168 0.884943 -0.20039295 0.51958865
0.08693562 -0.05897502 -0.9809213 -0.8746492 0.07037867 0.42736512 0.4334192 0.09787749
0.47742447 0.77213556 -0.48637152 -0.3649131 -0.48757634 0.17047082 0.46402776 -0.14796016
0.3371165 -0.030747961 -0.6251014 0.49693742 0.59179544 -0.16285606 0.02718902 -0.19231454
0.15427636 -0.11510484 0.65141875 -0.38019922 0.024691638 0.49642256 -0.17725474 -0.09110799
-0.078690164 -0.60290784 0.09936884 -0.22461835 -0.88179284 1.4687017 0.561713 -1.1692288
-0.02219006 -0.4157288 -0.113645025 -0.27703938 0.011973449 -1.7644302 0.052553095 0.17829344
00000000: 8a3f ffbe e797 b2be eee0 d0be 845a cf3e
00000010: 5e1f 5d3f a5eb 5dbd aead 88be 4bc7 10be
00000020: 3cc7 913d 2fa3 0e3e 086b 0f3f f0dc bebe
00000030: a9fc a6bd fbb3 4bbf 14e7 643e 9080 323d
00000040: a52e c43e 64ae e33e 586f f93e 13a9 253f
00000050: de8d 853e c74b 943e dd02 7fbe 4a3d fe3c
00000060: 2b73 d63e a9ce 08be cbef e93e 2593 57bf
00000070: f224 273f de82 0e3f 29c3 7d3f 61b4 073e
00000080: 45e5 97be 0334 d83e 3694 893e 7198 7bbf
00000090: 055e 2ebf 09d3 93bf d803 a4be 80ac 613e
000000a0: f3b2 febe ba55 c5be b5a0 9bbf 639c f8be
000000b0: eca8 9f3e 6934 a13d 0151 44be 6c50 42be
000000c0: b4e8 0ebf a3e2 9c3e fc70 c6bc a4ce e03d
000000d0: d369 f4be 1f8f 42be 0aaa 89be c3f3 873f
000000e0: 87c3 06be c935 253d 8f69 253e 77a4 37bf
000000f0: d7e3 c33e e635 16bf dd0a b53e 97e6 093f
00000100: 10d1 5b3f ee29 763f 7792 cbbb 993e a5bb
00000110: 1b13 3cbf 9b2a 6cbe 53fe e23e 3d6e 4cbf
00000120: 687e 753f f023 cb3e fd87 01bf 3631 3fbd
00000130: 5c41 503e 251f 6dbf bd3e 1abe ab14 133f
00000140: d5ea f93e da21 f03e 997c b9be 13ed 6c3e
00000150: 8e0e 44bf 33ba 243c c95e 063f f8b8 373e
00000160: bdaf a8be 82ff c1be c910 d9be 819e 753f
00000170: 6193 9dbe 4a7e 82bf 60fb 033e d99e c0be
00000180: 3df3 65be 5971 8abe 4e45 133f bd0e a03e
00000190: 9450 7f3f b143 563e 18c4 e23e e4fd 213e
000001a0: 15a4 b3be 5fff 5fbf c593 43bf fd41 4cbe
000001b0: a260 a6be be2e 28bf ee2f da3e d2d3 0b3f
000001c0: 87a6 ef3e 1201 88be 5004 3b3e f420 bebe
000001d0: ad7b 2a3f 20b0 0bbf 9351 50be dd70 6dbe
000001e0: e6e4 3c3f 4c11 7d3f adef dabe adf3 8d3e
000001f0: 4bae e23e 6970 96be d3b2 103e efed e83d
00000200: e2b6 0d3e 4c42 4bbf cd67 a0be e2d7 f03e
00000210: 9f93 843e 32f0 cfbf 81d1 c63f f484 193e
00000220: 15d1 10bd ed9b 3b3c 3d63 26be cff1 823d
00000230: cb1b 673f c4ab 4dbf 2b4e ffbe 2b5f 833c
00000240: 836c 833e 2cdf ffbe 8293 793e 3e97 803f
00000250: debf 363f c49f 60bf 5b09 84be 6e43 d83e
00000260: e1fe f93e 0308 7b3d bf19 983f f764 80bf
00000270: 32a9 bebe 624c 143e ec77 62be 629a 09bc
00000280: 5eef 81be 6a51 f13b 83c9 983f 93df 09bf
00000290: ddb2 81bb 9a85 c5be b199 3d3f 6822 38be
000002a0: 8a1f 403d fbd3 ed3c ecf6 aa3e cd58 e4be
000002b0: a8d2 24bf 61a9 bfbe 1328 8ebe e7aa 4ebf
000002c0: fb92 b4be 17f2 4f3f 34c4 09be c975 2dbd
000002d0: 3796 093f f965 953d d897 e73d 3caa 2bbe
000002e0: 946f 81bc 7bd3 133d d1ef 33bf 3258 15bf
000002f0: ce0c a33e 09fd 1a3f 4a3d 673f 1a10 1bbf
00000300: c094 313e 6d0d 053f 137f 65be 8984 9f3e
00000310: e9c7 ac3d cc51 e6be 2748 733f 4e1d 38be
00000320: 3df6 69bd 5277 03bf f653 ce3d 777e 5c3e
00000330: bee0 7ebf a08b 623f cf33 4dbe c303 053f
00000340: 4d0b b23d ca8f 71bd a91d 7bbf 03e9 5fbf
00000350: b122 903d 9acf da3e 1fe9 dd3e fe73 c83d
00000360: fb70 f43e adaa 453f b005 f9be e4d5 babe
00000370: 9ba3 f9be e78f 2e3e 0c95 ed3e de82 17be
00000380: 899a ac3e 26e3 fbbc a506 20bf 956e fe3e
00000390: e87f 173f bdc3 26be 82bb de3c 1aee 44be
000003a0: 9ffa 1d3e 16bc ebbd 61c3 263f 79a9 c2be
000003b0: 1e46 ca3c 192b fe3e 4482 35be d396 babd
000003c0: 4f28 a1bd 2b58 1abf e481 cb3d 5a02 66be
000003d0: 2dbd 61bf 6bfe bb3f 6ccc 0f3f 4aa9 95bf
000003e0: eec7 b5bc 68da d4be b9be e8bd 1bd8 8dbe
000003f0: 492c 443c d9d8 e1bf ea41 573d 8e92 363e

fc1.bias f4 [50]
0.22621995 0.41341305 -0.44116226 0.6995297 -1.1864239 0.7826861 -0.022400515 -0.27697456
-0.23665662 -1.3013215 -0.25963578 -0.22388083 -0.30883795 0.68833673 -0.7992626 0.1537296
-0.2900954 -1.2846109 0.07902087 -0.6046403 0.21458346 0.32916754 -0.122974925 -0.1359171
-0.34658474 -0.408755 -0.08356001 -0.07410099 -0.5761438 -0.13367514 -0.07300427 0.1928611
0.5198374 0.64947504 0.6755443 0.64412194 -0.43397528 -0.49288726 -0.3707075 -0.66707635
-0.63559675 -1.1846337 0.8386751 0.19105913 -0.059759207 0.3122031 -0.073761106 0.40614152
0.7234376 0.33320305
00000000: 34a6 673e e0aa d33e 05e0 e1be 6114 333f
00000010: bddc 97bf 1e5e 483f 4981 b7bc 9ccf 8dbe
00000020: 1d56 72be b491 a6bf fbee 84be 0441 65be
00000030: 0220 9ebe d636 303f 799c 4cbf 4b6b 1d3e
00000040: 6287 94be 216e a4bf b2d5 a13d b5c9 1abf
00000050: c4bb 5b3e a688 a83e 47da fbbd da2d 0bbe
00000060: 8e73 b1be 5648 d1be 8321 abbd 43c2 97bd
00000070: 297e 13bf 23e2 08be 4383 95bd 617d 453e
00000080: 1014 053f ff43 263f 79f0 2c3f 2de5 243f
00000090: 0232 debe b85b fcbe 60cd bdbe 84c5 2abf
000000a0: 78b6 22bf 14a2 97bf 69b3 563f 01a5 433e
000000b0: 12c6 74bd 16d9 9f3e 1010 97bd c8f1 cf3e
000000c0: 3533 393f 9799 aa3e

fc2.weight f4 [50, 50]
0.116963685 0.55575585 0.19774958 -1.1178743 -0.18491234 -0.13818759 0.10670545 0.24577036
-0.41464522 -0.36658904 -0.569261 1.2608414 0.7442121 -0.41391474 0.8406642 0.04733242
0.02637806 -0.43055865 0.59518236 -2.093096 -1.2291651 -0.940145 -0.6921642 0.0007411802
0.6856114 0.3039793 -0.48339298 0.2974995 0.15739104 0.26188287 0.26564512 0.051872846
-0.597713 0.84982336 0.5317946 -0.5416778 -0.12797326 0.2700424 -0.27503732 -0.45029205
-0.22181918 -1.259392 0.5014326 -0.08001681 0.5022119 0.21852903 0.27486125 -0.5559085
-0.4261243 0.06035253 0.31460583 -0.7499964 0.0654808 1.5038179 0.60279304 2.3572652
0.02037332 1.0644143 -0.45055714 -0.6118491 -0.38519767 0.6045213 -0.07793456 0.19230574
-1.5839279 -1.4017626 1.2852874 0.6949421 1.3791529 1.0134834 -1.3557727 0.33408093
-0.31711167 -0.038957067 0.34567034 -0.5468564 -0.6136697 -1.2450885 -0.14417398 -0.53139937
-0.8285419 0.39069423 0.24428321 -1.1713209 0.19155155 -0.4327466 -0.01877477 -0.08256594
0.7244195 -0.4936182 -0.8371514 1.5992079 -0.71140546 1.2586919 -0.44549778 1.7618935
0.35087526 -0.0059647234 -0.7441918 -0.15978462 -0.030401336 -0.19960834 0.20245272 0.17835967
1.1263436 -0.3679319 -0.08509844 -0.4456494 -0.15427479 -0.5022052 0.31846285 -1.8133234
0.56535786 0.35359946 0.07754454 1.0896853 0.3983838 1.0445331 -0.433124 0.15686636
0.58489376 0.6764152 -0.58136636 0.35136086 0.22466543 -0.28002432 0.46145797 0.29367098
0.45865783 -0.2592444 -0.23500851 -0.81791896 0.8028985 -2.0766754 0.54597646 -0.15942134
0.78001344 0.19243486 0.15847355 0.1754629 -0.27542356 0.14837195 0.28740105 -0.09252824
0.19364497 -0.070277326 -0.28860235 0.18142618 0.36577457 -1.5009153 -0.9943908 1.6367494
0.32020202 -1.4598298 -0.3361991 -0.6081622 -0.2871347 -0.5381962 -0.37524766 1.4353852
-0.4467527 0.004218367 -1.3338251 0.385618 -0.39297906 -0.28689623 -1.4816738 -0.4190389
0.102834396 -2.4387505 -0.26829216 -1.437206 1.3897325 -1.8435295 -0.17893982 0.42510968
0.1355074 1.0625476 1.1181602 0.4811473 0.016246488 1.6850978 0.4872495 0.965503
1.4334601 -0.93812835 -0.72129536 -0.24701029 0.0070050894 -0.4646382 -0.24468367 -0.09858489
0.57288903 0.41220006 1.4862765 -0.0941242 0.5597401 0.61481935 -0.48698583 1.4507645
-0.46948928 -0.8252819 -0.37968698 0.18544705 -0.15677524 -0.0100008845 0.5108674 0.17312162
0.46834543 0.43355525 -0.18501416 -0.24185562 -1.0726091 0.57803583 -0.42795148 -0.57401764
0.72292936 -0.05404449 -1.2652009 0.35844997 0.12307409 1.2279726 0.6732729 0.9518399
-1.086198 0.11885008 1.2272593 -0.17640531 0.10743943 -0.645053 -0.52346885 0.30716875
-0.1531651 -0.38787732 0.33363068 0.9409643 -1.2428756 0.14755596 0.2630025 -0.685941
1.3028157 0.96607906 -0.3207167 -0.5185918 -0.005502519 0.35116723 0.9251982 0.9298089
0.08648502 0.3781559 0.28188434 -0.18513401 0.28967184 0.6059486 0.45021626 0.051463354
00000000: a88a ef3d 0446 0e3f de7e 4a3e 8116 8fbf
00000010: a959 3dbe 0c81 0dbe 6388 da3d 3aab 7b3e
00000020: 614c d4be 8fb1 bbbe 17bb 11bf 4063 a13f
00000030: af84 3e3f a2ec d3be c535 573f a4df 413d
00000040: cd16 d83c 2f72 dcbe df5d 183f 49f5 05c0
00000050: 4855 9dbf 58ad 70bf ac31 31bf c34b 423a
00000060: 3b84 2f3f 2da3 9b3e 497f f7be db51 983e
00000070: 1e2b 213e 8315 863e a302 883e 9f78 543d
00000080: b803 19bf 068e 593f b123 083f 65ab 0abf
00000090: 6c0b 03be ff42 8a3e b1d1 8cbe ae8c e6be
000000a0: 9124 63be c233 a1bf e35d 003f dadf a3bd
000000b0: f690 003f 13c6 5f3e 9dba 8c3e 0550 0ebf
000000c0: f72c dabe 3734 773d 0414 a13e c4ff 3fbf
000000d0: cc1a 863d 1b7d c03f a550 1a3f 6fdd 1640
000000e0: f3e5 a63c ba3e 883f 6daf e6be 25a2 1cbf
000000f0: a138 c5be e8c1 1a3f 289c 9fbd cceb 443e
00000100: 26be cabf f56c b3bf 4c84 a43f bae7 313f
00000110: 1588 b03f d3b9 813f f689 adbf a80c ab3e
00000120: 765c a2be 7291 1fbd b4fb b03e c8fe 0bbf
00000130: 7519 1dbf 0f5f 9fbf 58a2 13be ca09 08bf
00000140: 521b 54bf 1309 c83e 6125 7a3e d8ed 95bf
00000150: 1726 443e f690 ddbe 8ccd 99bc 5518 a9bd
00000160: 8e73 393f 86bb fcbe 8e4f 56bf d8b2 cc3f
00000170: ab1e 36bf d11c a13f 4918 e4be ba85 e13f
00000180: eca5 b33e ba73 c3bb 5b83 3ebf 949e 23be
00000190: 390c f9bc 2166 4cbe c44f 4f3e eba3 363e
000001a0: 072c 903f 9261 bcbe 1748 aebd 282c e4be
000001b0: 36fa 1dbe 8590 00bf 900d a33e fb1a e8bf
000001c0: 4bbb 103f fd0a b53e accf 9e3d cf7a 8b3f
000001d0: f6f8 cb3e 43b3 853f 6ec2 ddbe 93a1 203e
000001e0: 99bb 153f 8c29 2d3f 6dd4 14bf 92e5 b33e
000001f0: b20e 663e 595f 8fbe 3844 ec3e 0b5c 963e
00000200: 33d5 ea3e afbb 84be 12a6 70be 2363 51bf
00000210: c28a 4d3f 40e8 04c0 1dc5 0b3f 593f 23be
00000220: f6ae 473f a50d 453e e446 223e 8cac 333e
00000230: 5104 8dbe d1ee 173e 3b26 933e 727f bdbd
00000240: de4a 463e 8fed 8fbd b0c3 93be c9c7 393e
00000250: ce46 bb3e fe1d c0bf 6590 7ebf 0181 d13f
00000260: 85f1 a33e b4db babf 4a22 acbe 85b0 1bbf
00000270: 5203 93be 3ac7 09bf 7620 c0be b4ba b73f
00000280: c5bc e4be 3a3a 8a3b c8ba aabf b96f c53e
00000290: 8d34 c9be 10e4 92be 7da7 bdbf 448c d6be
000002a0: d79a d23d 7d14 1cc0 975d 89be 5ef6 b7bf
000002b0: c1e2 b13f c6f8 ebbf 003c 37be faa7 d93e
000002c0: 74c2 0a3e 8f01 883f e01f 8f3f f058 f63e
000002d0: 5b17 853c 49b1 d73f c478 f93e 342b 773f
000002e0: 9f7b b73f 2e29 70bf d0a6 38bf 44f0 7cbe
000002f0: f38a e53b 0fe5 edbe 5b8e 7abe e0e6 c9bd
00000300: dba8 123f e30b d33e 4f3e be3f 30c4 c0bd
00000310: 214b 0f3f cd64 1d3f 3556 f9be a7b2 b93f
00000320: e660 f0be ad45 53bf 5566 c2be d5e5 3d3e
00000330: b089 20be c0da 23bc 35c8 023f cb46 313e
00000340: f9ca ef3e f4fa dd3e 5a74 3dbe 00a9 77be
00000350: 414b 89bf 28fa 133f 751c dbbe d2f2 12bf
00000360: e611 393f c15d 5dbd 1af2 a1bf c186 b73e
00000370: 450e fc3d 352e 9d3f 9d5b 2c3f c8ab 733f
00000380: 8908 8bbf ac67 f33d d516 9d3f 98a3 34be
00000390: 3409 dc3d 3222 25bf 0e02 06bf 3945 9d3e
000003a0: 50d7 1cbe db97 c6be a4d1 aa3e 09e3 703f
000003b0: 8c16 9fbf e918 173e 44a8 863e d499 2fbf
000003c0: aac2 a63f f550 773f fb34 a4be 6fc2 04bf
000003d0: 7a4e b4bb 31cc b33e cad9 6c3f f507 6e3f
000003e0: 0f1f b13d a69d c13e 2553 903e c593 3dbe
000003f0: de4f 943e 731f 1b3f bf82 e63e 3dcb 523d

fc2.bias f4 [50]
0.6220632 -2.0832808 0.36583328 -1.2478565 -1.1597836 -1.1249505 -0.04141609 -1.2425971
-0.90554214 -1.1434623 0.580375 -1.1649004 0.19762452 -2.1031935 -1.4213194 -0.034647655
-2.3165772 0.4764182 -1.9475418 -1.3835665 -1.0533583 -2.5023828 -1.5322468 0.31218794
-0.30222303 0.29237747 -0.60078627 0.38193133 -0.20688266 0.11870701 -1.3309797 -1.6439897
-1.0021878 -1.1639497 -0.15122977 -1.6544437 0.017319841 2.5309086 1.2668988 -2.1635492
-1.578516 0.38753086 0.96823186 -1.4597092 0.39381424 -1.7175752 -2.4842906 -0.4932219
-0.454281 -3.5193427
00000000: 893f 1f3f 7954 05c0 804e bb3e c3b9 9fbf
00000010: ca73 94bf 61fe 8fbf eba3 29bd 6c0d 9fbf
00000020: 9cd1 67bf f95c 92bf 7593 143f 751b 95bf
00000030: 155e 4a3e b99a 06c0 cbed b5bf b3ea 0dbd
00000040: cd42 14c0 16ed f33e 0d49 f9bf b518 b1bf
00000050: 72d4 86bf 0a27 20c0 aa20 c4bf 19d7 9f3e
00000060: fabc 9abe 80b2 953e 21cd 19bf 818c c33e
00000070: 0cd9 53be a91c f33d 8b5d aabf 416e d2bf
00000080: b147 80bf 4efc 94bf fadb 1abe d0c4 d3bf
00000090: 57e2 8d3c 68fa 2140 bd29 a23f 9777 0ac0
000000a0: d00c cabf 726a c63e 0bde 773f c0d7 babf
000000b0: 05a2 c93e 81d9 dbbf 9efe 1ec0 9587 fcbe
000000c0: 8597 e8be e93c 61c0

fc3.weight f4 [50, 50]
-0.03562803 0.05544279 -0.13028997 -0.10406608 -0.21453647 -0.05017798 0.095341064 0.21943451
-0.07193622 -0.086567596 0.18154559 0.23969091 0.13773105 -0.039787482 -0.16876529 0.2376445
-0.11718945 0.23993325 -0.30581975 0.037014756 0.043182258 -0.14533612 -0.074047804 0.01755279
-0.23708785 -0.13649184 0.18623005 -0.07187137 -0.12777859 -0.28228953 -0.14644216 -0.26867637
0.15195386 -0.015257233 -0.038179323 -0.34206358 -0.2189342 0.2051735 0.16493036 -0.017374594
-0.06789786 -0.16373624 0.3316437 -0.025219318 0.0004631456 -0.047445234 0.2661066 0.14665823
-0.17156696 -0.2719158 -0.11366648 -0.14561895 0.049114347 -0.21207114 -0.021966647 -0.11356771
-0.10913895 -0.071588315 -0.06934083 -0.001314946 -0.090586595 -0.12459496 -0.0009420439 -0.04230989
0.008977007 0.014850324 -0.027339093 -0.056510285 0.00373306 -0.0048475866 -0.18265684 0.018711578
-0.0054152366 -0.07768373 -0.22054815 -0.06445394 0.011888526 -0.02186887 0.04233822 -0.003296506
0.03186404 0.028129272 0.046068966 -0.024744755 0.005640364 -0.2405778 -0.16884105 -0.018488899
-0.13843669 -0.035417207 -0.08357881 -0.12586708 -0.05489168 -0.12362109 -0.13445276 -0.008923051
-0.071162105 0.06882293 -0.033746675 -0.16786864 -0.05708889 -0.07614313 -0.051140957 0.07831698
-0.15515721 0.016519748 -0.0573946 -0.0358744 -0.12367784 -0.19517682 -0.061962347 -0.105812885
-0.029532839 -0.31747305 0.022692893 0.08552079 -0.04913435 0.06461467 -0.16539213 -0.13580303
-0.29464358 -0.15634608 -0.01577401 -0.17202067 0.026034568 -0.15764268 -0.04152227 -0.21252327
0.07075073 -0.13294324 0.05124012 0.03873999 -0.08488724 -0.25520438 -0.105126865 -0.18608077
-0.11248519 -0.21080509 -0.16230366 0.05081063 0.0030228575 -0.13046129 -0.020711489 -0.13202766
-0.061626688 -0.06662837 -0.2579947 0.053705655 -0.10664029 0.09668334 -0.083691955 -0.13954721
-0.20429347 0.02096158 -0.08927957 -0.25595134 -0.0044531743 -0.17683801 -0.08140418 -0.21826269
-0.09542763 -0.21244523 -0.08632222 -0.17376056 0.077067845 -0.033236615 -0.13115418 -0.20047216
0.16647032 -0.084733866 -0.16409026 -0.07129562 -0.028045082 -0.055687707 -0.34349817 -0.31328398
-0.09577498 -0.15069993 -0.03051516 -0.21323153 -0.25825265 -0.1625389 -0.09640516 -0.304723
-0.116463125 -0.03371915 -0.16560747 0.08401922 -0.3213846 0.011481932 -0.33642107 -0.22233397
0.0061580865 -0.21516854 -0.23687835 -0.19847098 -0.12588376 -0.006280745 0.025185665 -0.1565294
0.21041477 0.28087842 0.29239175 0.6901752 -4.447495 0.6939938 -0.076116785 -0.10503005
-0.33097458 -2.9400516 0.19594717 0.12924471 -8.244695 -1.289843 -2.337174 -1.322895
-0.18070628 -0.1901075 0.334006 -0.0059177848 0.103752434 -1.3036907 0.05137091 -0.21793564
0.12161211 -0.74237466 -0.14084347 0.096565306 -0.43506885 0.09659678 0.049524184 -0.5437458
0.69656724 0.45261946 0.23492315 -1.1368998 -0.16601449 -0.40111405 -0.04471275 0.07602401
0.020261694 0.24290843 -0.023215558 -0.6648189 -0.40808773 0.48469675 -0.51709247 -0.68695915
0.05135277 0.44691956 0.0572422 -0.1996984 -0.48620126 -0.35235065 0.24299267 0.008630398
00000000: b2ee 11bd fb17 633d bc6a 05be 9920 d5bd
00000010: 73af 5bbe 6d87 4dbd 2d42 c33d 71b3 603e
00000020: 4c53 93bd 5a4a b1bd 16e7 393e 8971 753e
00000030: 5e09 0d3e 33f8 22bd cfd0 2cbe 1459 733e
00000040: 0601 f0bd 10b1 753e 6894 9cbe c99c 173d
00000050: e1df 303d fed2 14be 60a6 97bd deca 8f3c
00000060: 28c7 72be 84c4 0bbe 17b3 3e3e 4c31 93bd
00000070: 64d8 02be 4188 90be eff4 15be f38f 89be
00000080: cb99 1b3e 79f9 79bc ec61 1cbd f522 afbe
00000090: 4930 60be 0119 523e 81e3 283e 2a55 8ebc
000000a0: 090e 8bbd 79aa 27be 34cd a93e be98 cebc
000000b0: 5ad2 f239 ef55 42bd 203f 883e 932d 163e
000000c0: 40af 2fbe 8c38 8bbe f9c9 e8bd 221d 15be
000000d0: 202c 493d 2d29 59be 66f3 b3bc 3096 e8bd
000000e0: 3e84 dfbd e59c 92bd 9102 8ebd 445a acba
000000f0: 7785 b9bd a42b ffbd 7ff3 76ba 234d 2dbd
00000100: 4c14 133c c64e 733c 3cf6 dfbc 5477 67bd
00000110: 5ba6 743b 81d8 9ebb 650a 3bbe 0649 993c
00000120: 4c72 b1bb a618 9fbd 60d7 61be 6d00 84bd
00000130: 18c8 423c 5826 b3bc d76a 2d3d 310a 58bb
00000140: de83 023d 5c6f e63c d0b2 3c3d 83b5 cabc
00000150: cdd2 b83b 075a 76be abe4 2cbe 0876 97bc
00000160: 59c2 0dbe a211 11bd 5e2b abbd 4de3 00be
00000170: 19d6 60bd 0e2d fdbd fcad 09be fd31 12bc
00000180: 70bd 91bd 09f3 8c3d f439 0abd c2e5 2bbe
00000190: 0ad6 69bd eef0 9bbd 2e79 51bd a764 a03d
000001a0: 88e1 1ebe 6c54 873c 9a16 6bbd 09f1 12bd
000001b0: cf4a fdbd 6fdc 47be 3bcc 7dbd 6db4 d8bd
000001c0: daee f1bc d48b a2be 72e6 b93c 8625 af3d
000001d0: 1a41 49bd b254 843d 8e5c 29be f30f 0bbe
000001e0: 86db 96be 3019 20be 7f38 81bc 3026 30be
000001f0: 7246 d53c 156d 21be 4113 2abd b39f 59be
00000200: c2e5 903d 4622 08be 29e1 513d d3ad 1e3d
00000210: 5cd9 adbd 26aa 82be c14c d7bd f58b 3ebe
00000220: a35e e6bd 4add 57be ee32 26be cf1e 503d
00000230: 221b 463b a597 05be 24ab a9bc 4232 07be
00000240: 446c 7cbd 7474 88bd e217 84be 76fa 5b3d
00000250: 3966 dabd ea01 c63d b066 abbd 77e5 0ebe
00000260: 4f32 51be 9fb7 ab3c 35d8 b6bd 0e0c 83be
00000270: efeb 91bb 0615 35be 3cb7 a6bd 4180 5fbe
00000280: 906f c3bd 3e8b 59be b4c9 b0bd 4aee 31be
00000290: bfd5 9d3d 1e23 08bd 484d 06be 9348 4dbe
000002a0: 3277 2a3e f388 adbd 4707 28be 7003 92bd
000002b0: cdbe e5bc cb18 64bd fede afbe c266 a0be
000002c0: ac25 c4bd 1551 1abe eefa f9bc 5e59 5abe
000002d0: b139 84be 9970 26be 1270 c5bd a704 9cbe
000002e0: 3884 eebd 171d 0abd 0195 29be 4512 ac3d
000002f0: 868c a4be b71e 3c3c 623f acbe 84ab 63be
00000300: c6c9 c93b 2455 5cbe 3d90 72be fa3b 4bbe
00000310: ace7 00be b5ce cdbb 2b52 ce3c 3e49 20be
00000320: f876 573e 4ccf 8f3e 5fb4 953e 52af 303f
00000330: e151 8ec0 94a9 313f 1ee3 9bbd ff19 d7bd
00000340: 8075 a9be ce29 3cc0 60a6 483e ba58 043e
00000350: 45ea 03c1 9319 a5bf 4294 15c0 a054 a9bf
00000360: 110b 39be 8aab 42be d602 ab3e fae9 c1bb
00000370: 287c d43d 56df a6bf 4e6a 523d 852a 5fbe
00000380: c50f f93d 440c 3ebf 4539 10be 08c4 c53d
00000390: 58c1 debe 88d4 c53d dfd9 4a3d ed32 0bbf
000003a0: 3b52 323f bdbd e73e b28f 703e ef85 91bf
000003b0: b4ff 29be d25e cdbe b724 37bd 7ab2 9b3d
000003c0: dafb a53c fdbc 783e 8e2e bebc 9231 2abf
000003d0: e0f0 d0be 2c2a f83e 2c60 04bf 8edc 2fbf
000003e0: 4857 523d a4d2 e43e cc76 6a3d bd7d 4cbe
000003f0: 5fef f8be 4e67 b4be 12d3 783e 8366 0d3c

fc3.bias f4 [50]
-0.5622509 -0.16011223 -0.16828206 -0.13312772 -0.2894364 0.67690074 2.4698334 -0.20355178
-0.21650086 0.28740847 -1.0845882 -0.18831168 -1.3827193 -2.9932096 -2.6245737 -0.07683767
-0.1415919 1.2940248 0.3655273 -1.5000514 -1.1541902 -0.56177276 -1.1048371 -0.06532631
0.4037748 -3.4274228 1.9389193 -1.1773447 -2.5841386 -0.23557208 0.19907047 -0.5061348
-0.21556884 -0.20778042 -0.8806872 -1.1059346 -0.287067 0.84007627 0.5543574 -1.1122378
0.39027408 -0.14213298 -3.1395845 0.85206455 -0.1446556 -2.301524 -2.190359 -1.4900645
-0.46253133 -0.12188168
00000000: adef 0fbf 76f4 23be 2252 2cbe a252 08be
00000010: 0231 94be 5e49 2d3f c011 1e40 e16f 50be
00000020: 67b2 5dbe 3427 933e c9d3 8abf c7d4 40be
00000030: f2fc b0bf bf90 3fc0 04f9 27c0 115d 9dbd
00000040: 78fd 10be 9ba2 a53f 6526 bb3e af01 c0bf
00000050: 81bc 93bf 57d0 0fbf 4d6b 8dbf cdc9 85bd
00000060: 92bb ce3e e55a 5bc0 822e f83f 3bb3 96bf
00000070: 8762 25c0 cf39 71be 21d9 4b3e 0d92 01bf
00000080: 14be 5cbe 64c4 54be b774 61bf 448f 8dbf
00000090: 72fa 92be 3d0f 573f 5eea 0d3f cf5d 8ebf
000000a0: 01d2 c73e 4f8b 11be f4ee 48c0 e720 5a3f
000000b0: 9920 14be 2b4c 13c0 d82e 0cc0 6fba bebf
000000c0: e8d0 ecbe 1a9d f9bd

fc4.weight f4 [1, 50]
-0.009869322 0.019583292 -0.016513836 -0.018715443 0.01611303 0.013961196 0.015140851 -0.0014999543
0.018377928 0.042720027 0.015768139 -0.021886975 0.073341355 -0.016993737 0.011916471 0.023278259
0.010332716 -0.021331497 -0.010470273 0.026667414 0.010563058 -0.017713392 -0.027479485 0.012485437
-0.008223707 -0.024853218 0.02266732 0.010235246 0.012446531 0.00822889 0.023299469 0.010461265
-0.005885595 -0.0014064152 0.012797255 0.009983836 0.027046807 0.011510124 0.023506379 0.0099034915
-0.011485871 -0.026288448 0.00662915 0.026515003 -0.058188677 0.014620168 0.009873233 0.022491748
-0.009665652 -0.0028098386
00000000: f0b2 21bc 246d a03c 0648 87bc 2151 99bc
00000010: 79ff 833c 80bd 643c 5511 783c 1d9a c4ba
00000020: 4f8d 963c 32fb 2e3d 2f2c 813c 504c b3bc
00000030: fe33 963d 7336 8bbc 4d3d 433c 0cb2 be3c
00000040: 8d4a 293c 64bf aebc 828b 2bbc 9f75 da3c
00000050: ad10 2d3c ad1b 91bc a81c e1bc b88f 4c3c
00000060: babc 06bc fa98 cbbc d1b0 b93c bcb1 273c
00000070: 89ec 4b3c 77d2 063c 87de be3c ba65 2b3c
00000080: f3db c0bb 7757 b8ba 94ab 513c 3e93 233c
00000090: 4491 dd3c f694 3c3c 7390 c03c 4142 223c
000000a0: 3c2f 3cbc df5a d7bc 5739 d93b fe35 d93c
000000b0: 4057 6ebd 6e89 6f3c 57c3 213c 9d40 b83c
000000c0: af5c 1ebc 4525 38bb
